…
Dataset length: ('train', 800)
Dataset length: ('val', 50)
Dataset length: ('test', 150)
Data(n_atoms=[1], pos=[10, 3], cell=[1, 3, 3], structure_id=[1], z=[10], u=[1, 3], y=[1, 1], edge_index=[2, 90], edge_weight=[90], edge_vec=[90, 3], cell_offsets=[90, 3], neighbors=[0], x=[10, 100], edge_attr=[90, 50])
tensor(78)
tensor([-41.0815])

--------------------------------------------------------------------------
               Layer.Parameter    Param Tensor Shape              Param #
--------------------------------------------------------------------------
         pre_lin_list.0.weight            [100, 100]                10000
           pre_lin_list.0.bias                 [100]                  100
      conv_list.0.lin_f.weight            [100, 250]                25000
        conv_list.0.lin_f.bias                 [100]                  100
      conv_list.0.lin_s.weight            [100, 250]                25000
        conv_list.0.lin_s.bias                 [100]                  100
      conv_list.1.lin_f.weight            [100, 250]                25000
        conv_list.1.lin_f.bias                 [100]                  100
      conv_list.1.lin_s.weight            [100, 250]                25000
        conv_list.1.lin_s.bias                 [100]                  100
      conv_list.2.lin_f.weight            [100, 250]                25000
        conv_list.2.lin_f.bias                 [100]                  100
      conv_list.2.lin_s.weight            [100, 250]                25000
        conv_list.2.lin_s.bias                 [100]                  100
      conv_list.3.lin_f.weight            [100, 250]                25000
        conv_list.3.lin_f.bias                 [100]                  100
      conv_list.3.lin_s.weight            [100, 250]                25000
        conv_list.3.lin_s.bias                 [100]                  100
              bn_list.0.weight                 [100]                  100
                bn_list.0.bias                 [100]                  100
              bn_list.1.weight                 [100]                  100
                bn_list.1.bias                 [100]                  100
              bn_list.2.weight                 [100]                  100
                bn_list.2.bias                 [100]                  100
              bn_list.3.weight                 [100]                  100
                bn_list.3.bias                 [100]                  100
        post_lin_list.0.weight            [150, 100]                15000
          post_lin_list.0.bias                 [150]                  150
        post_lin_list.1.weight            [150, 150]                22500
          post_lin_list.1.bias                 [150]                  150
        post_lin_list.2.weight            [150, 150]                22500
          post_lin_list.2.bias                 [150]                  150
                lin_out.weight              [1, 150]                  150
                  lin_out.bias                   [1]                    1
--------------------------------------------------------------------------
Total params: 272301
Trainable params: 272301
Non-trainable params: 0
Settings: 
{'dataset': {'additional_attributes': None,
             'data_format': 'json',
             'dataset_device': 'cpu',
             'name': 'test_data',
             'num_workers': 0,
…
